data.pth (torch, 9130 bytes, 6 tensors)

l1.weight f4 [8, 111]
0	0xbe822bbc	-0.25423992
1	0xbeedcf60	-0.46447277
2	0x3e3cbb37	0.18430792
3	0xbce80de2	-0.028326932
4	0x3f4f6121	0.8100758
5	0x3eb3289a	0.34991914
6	0x3bd41308	0.0064719953
7	0x3e69d9de	0.22837016
8	0x3e524548	0.20534241
9	0xbbf76fbc	-0.0075511616
10	0xbfa9f043	-1.3276447
11	0x3ec5bba9	0.38619736
12	0xbeac1f66	-0.33617705
13	0xbef7117a	-0.4825552
14	0x3e96c312	0.29445702
15	0xbf2b4f6d	-0.6691807
16	0x3eb5d158	0.3551128
17	0x3eb2e478	0.34939933
18	0x3ebb4e2d	0.3658308
19	0xbecfa4a7	-0.40555307
20	0x3f2dd329	0.6790033
21	0x3f416827	0.7554955
22	0x3e0154b7	0.12629972
23	0xbe1ad284	-0.15119368
24	0xbebaab01	-0.3645859
25	0x3f70adba	0.94015086
26	0xbdaee8f9	-0.0854053
27	0xbedb4222	-0.42823893
28	0xbdf622ea	-0.12018378
29	0x3fd201ea	1.6406834
30	0x3f08ab4c	0.5338638
31	0x3ef3c75b	0.47613034
32	0xbe8e67a5	-0.2781345
33	0xbfa068dd	-1.2532002
34	0x3ec6a272	0.3879581
35	0x3e82bfd1	0.2553697
36	0xbd774543	-0.060368787
37	0xbde0b0c7	-0.109712176
38	0x3eac3e67	0.3364136
39	0x3f55df0a	0.83543456
40	0x3f0fd345	0.56181747
41	0xbf581f70	-0.8442297
42	0x3e68c2c6	0.2273055
43	0x3ef26335	0.47341314
44	0xbdf66a00	-0.12031937
45	0xbf65eab9	-0.89811283
46	0xbec58cc1	-0.3858395
47	0x3f2a936a	0.66631186
48	0xbe69c8e0	-0.22830534
49	0x3f4bb83a	0.7957798
50	0x3f948908	1.1604319
51	0x3ea7e5d8	0.32792544
52	0xbf6b0842	-0.91809475
53	0x3f32b7c8	0.6981168
54	0x3ea7ef5b	0.327998
55	0x3e8ddb2e	0.27706283
56	0x3e9bc739	0.30425432
57	0x3f002d4d	0.50069124
58	0x3f1d04cf	0.6133546
59	0xbd891584	-0.06693557
60	0x3eaf4f2d	0.34240094
61	0xbf5f3196	-0.8718504
62	0xbf4d99b4	-0.8031266
63	0xbf094708	-0.5362401
64	0x3f20f7c5	0.62878066
65	0x3ec6b620	0.38810825
66	0x3f200c2b	0.62518567
67	0x3ed38a03	0.41316232
68	0xbdb79870	-0.08964622
69	0xbe55531c	-0.20832485
70	0xbd453b9f	-0.048152562
71	0xbf67bb7b	-0.9052045
72	0x3f0a8825	0.5411399
73	0xbc5176a9	-0.012784638
74	0xbf45e140	-0.7729683
75	0x3ea42152	0.3205667
76	0x3f5a7796	0.85338724
77	0x3e9ac648	0.30229402
78	0x3f329112	0.6975261
79	0x3f0cf49c	0.55060744
80	0x3f1fb29f	0.6238193
81	0xbf5eb467	-0.8699402
82	0x3e8e1f25	0.27758136
83	0x3ed1dc11	0.4098821
84	0xbe30665d	-0.17226548
85	0x3ebc0882	0.3672524
86	0x3f167f98	0.5878844
87	0x3c4af5ff	0.012387752
88	0x3ea717af	0.32635257
89	0xbeb164cf	-0.34647223
90	0x3ee8d399	0.45473936
91	0xbddec8ba	-0.10878129
92	0x3f25eca0	0.64814186
93	0xbd621bc6	-0.055202268
94	0x3d1e20ed	0.03860562
95	0x3e909e61	0.28245834
96	0x3cd6b515	0.026209394
97	0x3e98fd23	0.29880628
98	0x3f134234	0.5752289
99	0xbf389601	-0.7210389
100	0xbed4c522	-0.4155665
101	0xbf1c2348	-0.60991335
102	0x3f351db5	0.70748454
103	0xbd948e95	-0.07253758
104	0xbe0d13e1	-0.13777114
105	0xbec91225	-0.39271656
106	0x3ec9ffcd	0.39452973
107	0xbeb647ca	-0.35601646
108	0x3eafd3c8	0.34341264
109	0x3e98d8bf	0.29852864
110	0x3f009cdb	0.5023934
111	0xbe22358f	-0.15840743
112	0x3f118e9e	0.5685824
113	0x3eacffff	0.3378906
114	0xbcc7ee73	-0.024405694
115	0xbe9b0eb5	-0.30284658
116	0xbf4214da	-0.75813067
117	0x3f8093c4	1.0045094
118	0xbebfdb8f	-0.37472197
119	0xbecb34a4	-0.396886
120	0xbd630b77	-0.055430856
121	0x3f838657	1.0275372
122	0x3fba3e80	1.4550323
123	0x3e96257d	0.29325476
124	0xbe17b62d	-0.14815588
125	0xbdbdad5c	-0.09261581
126	0xbec8eceb	-0.39243254
127	0x3efe3ac4	0.4965421
128	0xbe983bbf	-0.29733083
129	0xbf0b7e9a	-0.54490054
130	0x3eedf9ae	0.46479553
131	0xbdfea0e0	-0.12433028
132	0xbeb79247	-0.35853788
133	0x3f8b6e96	1.0893123
134	0xbe21deb7	-0.15807615
135	0x3ef46b44	0.47738087
136	0x3f4dfe53	0.8046619
137	0xbe2bf31f	-0.16791962
138	0x3c851020	0.01624304
139	0x3f2be9e4	0.67153764
140	0x3f8d264b	1.1027311
141	0x3ef11a16	0.47090214
142	0xbe67b159	-0.22626247
143	0x3f0c78e2	0.5487195
144	0x3f265c2d	0.649844
145	0xbf469eb0	-0.7758589
146	0xbed664a5	-0.4187366
147	0x3eb8f67a	0.36125547
148	0xbe3fb9f1	-0.18723275
149	0xbd92e36f	-0.07172286
150	0xbf24b909	-0.6434484
151	0x3e9aef0b	0.302605
152	0x3ef532c0	0.47890282
153	0xbec1adbb	-0.37827858
154	0xbe6e534e	-0.23273966
155	0xbf0606a8	-0.52353907
156	0xbe9c62a3	-0.30544004
157	0xbeadf798	-0.33977962
158	0xbe86abe8	-0.2630303
159	0xbe8a7a49	-0.2704642
160	0xbf060304	-0.5234835
161	0xbf388fbf	-0.7209434
162	0x3f584af4	0.8448937
163	0x3fb6ce5a	1.4281723
164	0x3da89445	0.08231405
165	0xbe122384	-0.1427136
166	0x3e65ec15	0.2245334
167	0x3f19dd09	0.601029
168	0x3ea4a710	0.3215871
169	0xbe2d8da9	-0.1694857
170	0xbd84cd12	-0.064844266
171	0xbbd0c9dc	-0.0063717198
172	0xbf8f05d3	-1.1173652
173	0x3ee5a56d	0.44852772
174	0x3eebf907	0.4608843
175	0xbe176b73	-0.14787082
176	0x3f08a201	0.533722
177	0xbde48d7b	-0.11159798
178	0x3e9a39e4	0.30122292
179	0x3f074ed3	0.5285465
180	0xbce56870	-0.028003901
181	0xbe2c5e62	-0.16832879
182	0xbf300cba	-0.6876942
183	0xbf103517	-0.5633101
184	0xbe4347ef	-0.19070409
185	0xbf8b5292	-1.0884573
186	0x3f2728bd	0.65296537
187	0x3f686bef	0.90789694
188	0xbcf96fba	-0.030448783
189	0x3ead56e3	0.33855352
190	0xbe9328a1	-0.28741935
191	0x3e825dc2	0.25462157
192	0x3f528beb	0.8224475
193	0x3ef7241b	0.48269734
194	0xbe30f173	-0.17279606
195	0xbf814b7f	-1.0101165
196	0x3f7e1db6	0.99264085
197	0x3f5548b4	0.8331406
198	0xbd5ae373	-0.05343957
199	0xbe9e9b8c	-0.30978048
200	0xbb1fc5e0	-0.0024379417
201	0xbdadace3	-0.08480241
202	0x3e02c520	0.1277051
203	0x3f606f74	0.87670064
204	0xbd3d204a	-0.04617337
205	0xbdee8901	-0.11647225
206	0xbe86ffb1	-0.26366952
207	0xbeb5ec45	-0.35531822
208	0xbe8162ea	-0.25270778
209	0xbe87adf3	-0.264999
210	0xbf6c144b	-0.92218465
211	0xbe000f00	-0.12505722
212	0xbd424bc3	-0.047435533
213	0xbf061f6c	-0.52391696
214	0xbd086502	-0.033299454
215	0xbe58a29a	-0.21155778
216	0x3c82e370	0.015977591
217	0xbe950101	-0.29102328
218	0x3f3ed9d0	0.74551105
219	0xbdf293a1	-0.11844564
220	0x3e7e0d0d	0.24809666
221	0x3ef40ea5	0.47667423
222	0x3e99e263	0.30055532
223	0xbeaf2358	-0.34206653
224	0x3f02ca50	0.51089954
225	0xbe076f7a	-0.13226119
226	0xbf2e501b	-0.6809098
227	0x3f4c1cae	0.7973126
228	0x3f83a727	1.0285386
229	0xbece7fe7	-0.40331957
230	0xbec47d28	-0.38376737
231	0xbdac38b3	-0.08409252
232	0x3fbf8a21	1.4964029
233	0xbfbdbad6	-1.4822643
234	0xbf7541a1	-0.95803267
235	0x3f02fb9a	0.51165164
236	0xbecd34ef	-0.40079448
237	0x3f067543	0.5252268
238	0x3edfc9a5	0.4370853
239	0xbeb06bb3	-0.34457168
240	0x3f126595	0.5718625
241	0xbe4ceefd	-0.20013042
242	0x3f45b579	0.7723003
243	0xbf2e523d	-0.68094236
244	0x3fb913e1	1.4459192
245	0x3f3f5824	0.74743867
246	0xbe94746c	-0.28995073
247	0xbf2f7efd	-0.68553144
248	0xbea4b7c6	-0.32171458
249	0xbe93b1d3	-0.28846607
250	0x3ed4bfca	0.41552573
251	0xbfc51684	-1.5397496
252	0x3f0c11cd	0.5471466
253	0xbeac4ce6	-0.3365242
254	0xbed6e7b2	-0.41973644
255	0x3fa9cd93	1.3265861

l1.bias f4 [8]
0	0x3f65ef56	0.8981832
1	0x3f060575	0.52352077
2	0x3f2e5708	0.6810155
3	0x3f8e97aa	1.1140034
4	0x3f9eac56	1.2396343
5	0x3f44c7f7	0.7686762
6	0x3f118890	0.56849
7	0x3f680a40	0.9064064

l2.weight f4 [8, 8]
0	0x40011787	2.017061
1	0x3e00a828	0.12564147
2	0x3e46a45b	0.19398634
3	0x3fcb3ab7	1.5877293
4	0xbc5d6918	-0.013513826
5	0xbe5bc160	-0.21460485
6	0xbe1166ec	-0.14199418
7	0x3f77071b	0.9649522
8	0xbfc8477a	-1.5646813
9	0x3ed489ac	0.41511285
10	0x3f9585af	1.1681422
11	0xbf5e1b2c	-0.8676021
12	0x3f89db59	1.0770065
13	0x3fb87f44	1.4413838
14	0x3fa8de82	1.3192904
15	0x3fc52d09	1.5404369
16	0x3f196f0c	0.5993507
17	0xbfaa91a4	-1.3325696
18	0x3f5ecdc7	0.8703274
19	0x3f10cec7	0.5656552
20	0x3f95f9a4	1.1716809
21	0x3fbc2843	1.4699787
22	0xbeb3a163	-0.35084066
23	0x3fa8c68b	1.318559
24	0x3f7d172c	0.9886348
25	0x3f02520a	0.5090643
26	0xbfd997f6	-1.69995
27	0x3f690a36	0.91031206
28	0x4009ef1f	2.1552198
29	0x3fb33986	1.400193
30	0x3fbc77d0	1.4724064
31	0xbfa8aa4e	-1.3176973
32	0x3f917578	1.1363974
33	0x3fd6cde8	1.6781588
34	0x3fb825ab	1.4386495
35	0x3f52d1dd	0.82351476
36	0xbfb20c41	-1.390999
37	0x3ec7d46a	0.39029247
38	0x3f7c8814	0.9864514
39	0xbf96b2af	-1.177328
40	0xbfa39ae7	-1.2781647
41	0x3eddcc86	0.43320101
42	0x3f6d921c	0.9280107
43	0xbd7fd0c2	-0.062454946
44	0x3ea48c97	0.32138512
45	0xbd3b7a0d	-0.045770694
46	0x3fa4a89a	1.2863953
47	0xbf288a41	-0.6583596
48	0x3f0d3b23	0.5516836
49	0xbf7da6ef	-0.99082845
50	0x3f561796	0.8362974
51	0x3fc15c4f	1.5106295
52	0x3f1876fc	0.59556556
53	0xbfa149f0	-1.2600689
54	0x3f05b35d	0.5222681
55	0x3f0364be	0.51325595
56	0x3df8b3f4	0.12143698
57	0x3eea54cb	0.45767817
58	0x3ed82063	0.4221221
59	0x3fb77b60	1.4334526
60	0x3dd0333d	0.10166023
61	0xbf8e514e	-1.1118562
62	0xbf91d13c	-1.1391978
63	0x3ff39902	1.9031069

l2.bias f4 [8]
0	0x3ec3c1e7	0.38233873
1	0x3d9de2ed	0.07709298
2	0x3f3862d6	0.7202581
3	0x3f1a4064	0.602545
4	0x3d506b2d	0.05088346
5	0xbd76b032	-0.060226627
6	0xbcbdc634	-0.0231658
7	0x3f65d5a5	0.8977912

l3.weight f4 [23, 8]
0	0x3dcd7f42	0.10034038
1	0x3eedb082	0.46423727
2	0x3e696995	0.22794183
3	0xbe20ebdc	-0.15714973
4	0xbeab6c4a	-0.33481055
5	0xbf67d5ac	-0.9056041
6	0xbec77afa	-0.3896101
7	0xbf98709d	-1.1909367
8	0xbd6d28dd	-0.0579003
9	0x3e80b634	0.2513901
10	0x3ee5cccc	0.4488281
11	0xbe0f49a2	-0.13992932
12	0xbe2ed9b8	-0.1707524
13	0xc024be1d	-2.5741036
14	0xbf9e8cc1	-1.2386705
15	0x3e3ff226	0.18744716
16	0x3ecf71cd	0.4051651
17	0xbeef4d16	-0.467385
18	0x3ee1055f	0.4394941
19	0xbf5b476d	-0.8565586
20	0x3e016bf7	0.12638842
21	0xbfe21910	-1.7663898
22	0x3ecab738	0.3959291
23	0xbe86f6cf	-0.26360175
24	0xbe9571c3	-0.29188356
25	0x3e3d321b	0.18476145
26	0x3ee8e4b6	0.45486993
27	0xbfd7d80b	-1.6862806
28	0x3f114ff7	0.5676264
29	0xbea8207a	-0.32837278
30	0xbfb9d138	-1.4516973
31	0xbf504185	-0.81349975
32	0x3e840463	0.25784597
33	0xbf10c7fc	-0.5655515
34	0xbe768be1	-0.24076797
35	0x3f20bc9e	0.62787807
36	0x3ee2905d	0.44250765
37	0xbf661bac	-0.89885974
38	0xc01e03dd	-2.4689858
39	0xbfd15a65	-1.6355711
40	0x3ef35c2d	0.47531262
41	0xbf004133	-0.50099486
42	0xbf0871e4	-0.53298783
43	0x3eee40ed	0.4653391
44	0x3d89477c	0.06703088
45	0xbfd85888	-1.6902018
46	0xbea8c5bf	-0.32963368
47	0xbef853f2	-0.48501545
48	0x3ebda1b2	0.37037426
49	0xbf610bc3	-0.8790857
50	0x3f1f7a8f	0.62296385
51	0xc00653e6	-2.0988708
52	0xbfc55e2a	-1.5419362
53	0xc02239ac	-2.53477
54	0x3f033e37	0.5126681
55	0x3f81196f	1.0085887
56	0x3ec08c5a	0.3760708
57	0xbffcabd2	-1.9739935
58	0x3e884434	0.26614535
59	0x3e9267b6	0.2859475
60	0xbfbade7e	-1.4599149
61	0xc00c5684	-2.1927805
62	0x3edd2943	0.43195543
63	0x3f06fde8	0.5273118
64	0xbb9db856	-0.0048132343
65	0xbf8e5b03	-1.1121525
66	0x3f5ad91d	0.8548754
67	0x3f7bff25	0.98436195
68	0xbf6dfc85	-0.9296344
69	0xbfc16a8f	-1.5110644
70	0xbf2aa34d	-0.6665543
71	0xbf891f31	-1.0712644
72	0xbde342bf	-0.11096715
73	0xbea3d6d6	-0.31999844
74	0xc00720de	-2.111381
75	0xbe8f272e	-0.2795958
76	0x3f299209	0.66238457
77	0x3e880b05	0.26570907
78	0xbf1e0c07	-0.617371
79	0xbeb01f6b	-0.3439897
80	0xbf7f5160	-0.99733543
81	0x3e9059c2	0.2819348
82	0xbfdfad26	-1.7474716
83	0xbefb0d44	-0.49033558
84	0x3f32cdb4	0.6984513
85	0x3f2d6c27	0.6774315
86	0xbfff9edc	-1.9970355
87	0xbfb68a13	-1.4260887
88	0xbd089ec7	-0.033354547
89	0xbda0c9ee	-0.07851015
90	0xc0165fb1	-2.3495905
91	0x3f17a06b	0.59229153
92	0x3ee0cf04	0.4390794
93	0x3e2d0e4b	0.16899984
94	0xc02a37d4	-2.6596575
95	0xbf93c5b7	-1.1544713
96	0x3ee36d8f	0.44419524
97	0xbd614b0f	-0.055003222
98	0xbf8288f3	-1.0198044
99	0xbf8fbfa1	-1.1230356
100	0x3ea1fb1b	0.3163689
101	0xbf193bef	-0.59857076
102	0xbf164e46	-0.58713186
103	0x3ed7d721	0.42156318
104	0xbf01be64	-0.5068114
105	0x3ee8f77b	0.45501313
106	0xbef94314	-0.4868399
107	0xbe83a8f3	-0.25714836
108	0x3d914847	0.07093864
109	0x3ee5b78f	0.44866607
110	0xbf9ac1f4	-1.209044
111	0xbf220467	-0.6328797
112	0xbe206a0d	-0.15665455
113	0xbea02729	-0.31279877
114	0xbe996a38	-0.2996385
115	0x3ea0ced6	0.31407803
116	0x3e806ae4	0.2508155
117	0x3e4e7740	0.20162678
118	0xbe0c739a	-0.13715973
119	0xc0141310	-2.3136635
120	0xbe70ab47	-0.23502837
121	0xbeb20492	-0.34769112
122	0xbeeba4e2	-0.46024233
123	0x3ddcc9e5	0.10780696
124	0xbdc447af	-0.09583985
125	0x3e42bb56	0.19016775
126	0x3da52064	0.08062819
127	0x3d43e7d9	0.04782853
128	0xbf42fa70	-0.7616339
129	0x3ea3dffc	0.32006824
130	0x3ea8ab60	0.3294325
131	0xbf250157	-0.6445517
132	0xbefb288f	-0.4905438
133	0x3ec74899	0.38922575
134	0x3dfedbda	0.12444277
135	0xbfe6b0b0	-1.8022671
136	0xbf01b002	-0.5065919
137	0x3f09f1cc	0.5388458
138	0x3e990a7d	0.29890814
139	0x3f24f3ec	0.64434695
140	0xbf41115f	-0.7541713
141	0xbf556a05	-0.833649
142	0xc01bb6aa	-2.433024
143	0xbfa58b47	-1.2933129
144	0x3f0480b1	0.5175887
145	0xbff71d28	-1.9305773
146	0xbe5b3d91	-0.21410204
147	0xbfd72fae	-1.6811426
148	0x3e9bd00e	0.3043217
149	0xc0055bd6	-2.0837302
150	0x3e3a7870	0.18210006
151	0x3f2e100e	0.6799325
152	0xbfc8c1f7	-1.5684193
153	0x3ea57327	0.32314417
154	0xbf98d14c	-1.1938872
155	0x3f5c0376	0.8594278
156	0xbd65185a	-0.055931427
157	0x3e54cef5	0.20782073
158	0xbfd81cc8	-1.6883783
159	0xbf52d369	-0.82353836
160	0xbd3bd3f8	-0.045856446
161	0x3e6738a0	0.22580194
162	0xbd2e727e	-0.042589657
163	0xbf0fb812	-0.56140244
164	0xbfd8c862	-1.6936152
165	0x3e7c5190	0.24640489
166	0x3f050879	0.51966053
167	0x3ed89ce0	0.42307186
168	0x3da9c3e5	0.08289317
169	0x3f34d3ed	0.70635873
170	0x3f30ccd0	0.6906252
171	0xbfed14f3	-1.8522018
172	0xbfa9a0d1	-1.3252202
173	0xbf9610b9	-1.1723853
174	0xbf9dfcbc	-1.2342753
175	0x3eaf1e0d	0.34202614
176	0x3eac76d5	0.33684412
177	0xbfc70ed4	-1.55514
178	0xbfeeae93	-1.8647026
179	0x3d4bd5da	0.04976449
180	0x3f189a04	0.5961001
181	0xbf6409a9	-0.8907724
182	0xbdb077e8	-0.0861662
183	0x3e80cbb6	0.2515542

l3.bias f4 [23]
0	0xbf06df83	-0.526848
1	0x3e7a64c9	0.24452509
2	0xbd47da94	-0.048792437
3	0x3de2697b	0.11055275
4	0xbda32f67	-0.07968026
5	0xbbeab1ac	-0.0071622934
6	0x3ee376de	0.44426626
7	0x3ec74898	0.38922572
8	0x3ec98a6d	0.39363423
9	0xbcd1028c	-0.02551391
10	0xbeb43bc6	-0.35201854
11	0x3d8a6216	0.0675699
12	0xbe7f6d4c	-0.24944037
13	0xbe7119fa	-0.23545066
14	0xbec0edab	-0.37681326
15	0x3dafa3e0	0.085761786
16	0xbea17f1c	-0.3154229
17	0xbd6271e8	-0.05528441
18	0x3e361e8c	0.1778509
19	0x3e076c1b	0.13224833
20	0xbd9e92b4	-0.07742825
21	0x3f0bd9b0	0.5462904
22	0xbe8d6f30	-0.27623892
